…
2020-12-16 23:38:31.733732: I tensorflow/core/platform/cpu_feature_guard.cc:145] This TensorFlow binary is optimized with Intel(R) MKL-DNN to use the following CPU instructions in performance critical operations:  SSE4.1 SSE4.2 AVX AVX2 FMA
To enable them in non-MKL-DNN operations, rebuild TensorFlow with the appropriate compiler flags.
2020-12-16 23:38:31.734615: I tensorflow/core/common_runtime/process_util.cc:115] Creating new thread pool with default inter op setting: 8. Tune using inter_op_parallelism_threads for best performance.
Model: "sequential_1"
_________________________________________________________________
Layer (type)                 Output Shape              Param #   
=================================================================
conv2d_1 (Conv2D)            (None, 32, 32, 16)        448       
_________________________________________________________________
batch_normalization_1 (Batch (None, 32, 32, 16)        64        
_________________________________________________________________
max_pooling2d_1 (MaxPooling2 (None, 16, 16, 16)        0         
_________________________________________________________________
conv2d_2 (Conv2D)            (None, 16, 16, 32)        4640      
_________________________________________________________________
batch_normalization_2 (Batch (None, 16, 16, 32)        128       
_________________________________________________________________
max_pooling2d_2 (MaxPooling2 (None, 8, 8, 32)          0         
_________________________________________________________________
conv2d_3 (Conv2D)            (None, 8, 8, 64)          18496     
_________________________________________________________________
batch_normalization_3 (Batch (None, 8, 8, 64)          256       
_________________________________________________________________
max_pooling2d_3 (MaxPooling2 (None, 4, 4, 64)          0         
_________________________________________________________________
conv2d_4 (Conv2D)            (None, 4, 4, 128)         73856     
_________________________________________________________________
batch_normalization_4 (Batch (None, 4, 4, 128)         512       
_________________________________________________________________
max_pooling2d_4 (MaxPooling2 (None, 2, 2, 128)         0         
_________________________________________________________________
flatten_1 (Flatten)          (None, 512)               0         
_________________________________________________________________
dense_1 (Dense)              (None, 64)                32832     
_________________________________________________________________
dropout_1 (Dropout)          (None, 64)                0         
_________________________________________________________________
dense_2 (Dense)              (None, 5)                 325       
=================================================================
Total params: 131,557
Trainable params: 131,077
Non-trainable params: 480
_________________________________________________________________
Epoch 1/30
153/153 [==============================] - 40s 265ms/step - loss: 1.6652 - accuracy: 0.2143 - val_loss: 1.6764 - val_accuracy: 0.1880

Epoch 00001: val_loss improved from inf to 1.67638, saving model to /Users/friedrich/Projects/GitHub/AMLS_assignment20_21/AMLS_20-21_SN20043715/B1/B1_CNN_model.h5
…
